cassandra/assets/univariate-lstm/model.pth (torch, 54471 bytes, 9 tensors)

lstm.weight_ih_l0 f4 [128, 1]
00000000: 1d95 033e 7b28 56be 273e 5a3e 7f9e 8c3e
00000010: 1c77 bdbc 6d31 933d a894 fcbc c3b5 013e
00000020: 5dba 93bd 910f 933e d3c5 5d3c a967 6c3e
00000030: 874d 683e 7058 423e 0539 aa3c 8165 0b3e
00000040: 52f7 59be 3b7a 4e3e 795c 293e c390 89bd
00000050: 84ec 033d 1cb2 cfbd 6b85 7f3e 60b8 cc3d
00000060: 93e7 45bd cbc6 7b3e f360 46be e84b 353e
00000070: 04ad 523e 6f4e 553e dd4f 28bd 8dfd 853e
00000080: 4a06 1f3d 46d3 0ebe 5b99 023e ae1c 583e
00000090: f5a3 4b3e 78ec 893e 24d9 55be e1da 933d
000000a0: f216 87be 089e cc3e b844 24be 78f6 9a3e
000000b0: df1c f53c 00b9 883c 68c3 283e 8645 f23d
000000c0: 4a25 d23d 127c 653e aba6 5e3e 718b 863d
000000d0: 18c3 293e 72dc 32bb 97ac b1bc e361 6f3e
000000e0: 8ca4 54be d560 96bc 9cdb 7fbe d205 bbba
000000f0: 30b1 6f3e cf1b 3c3e 5415 a7bc bb44 743e
00000100: 13b0 1ebe cbab 813e c46f 633e 2d30 67be
00000110: c50e 933e 0971 663e bf60 31bc ae22 bd3d
00000120: 5ca4 0cbe 0e64 dc3d 6838 26bd ee57 e93d
00000130: f5c1 723e 722e 16be 2212 82bd b685 dc3d
00000140: 8305 5bbe c1e6 533e 7073 37be c8a0 1cbe
00000150: fa68 33be bd3b 3d3e 344a 8e3e a113 9d3e
00000160: 65e5 953e a1bf 79be 3617 89be 4dae 583e
00000170: ae0b 8a3e 0d4e 7bbe 1e36 213e fa4b 7dbe
00000180: 0f81 383d 3727 4dbe a273 d23d 693b 253e
00000190: 4370 863e 055e ab3e 5a80 64be 41a3 1bbe
000001a0: 5d20 9bbe 1df1 ec3e a23c 81be b5ce ea3d
000001b0: 1ba0 333d 6483 8bbc 0cff 743e ce5e 9e3d
000001c0: 0dbd d63d 308e 3a3e 99d1 6b3e 8ef0 843d
000001d0: 40b5 eb3c 57f7 16be 63ce 563e 3ade 843e
000001e0: e22b 21bc 83f1 9c3e 5e0c 2abe 15fa a83e
000001f0: 004d 8b3e d669 313e 9212 c63d 8d4e 6c3e
0.12849851 -0.2091388 0.21312772 0.27464673 -0.023128085 0.071871616 -0.030832604 0.12666993
-0.0721328 0.28722814 0.0135359345 0.23086418 0.22685824 0.18979049 0.020779142 0.1361294
-0.21285751 0.20163815 0.16539182 -0.06717064 0.03220798 -0.101413935 0.24953239 0.09996104
-0.04831655 0.24587552 -0.1937292 0.17704737 0.20573813 0.20830701 -0.04109179 0.26170006
0.038824357 -0.13947782 0.12753813 0.2110469 0.19886763 0.26938224 -0.20883614 0.07219482
-0.26384693 0.39964318 -0.16041839 0.30266166 0.029920993 0.016689777 0.16480792 0.11829667
0.102610186 0.2241061 0.21743266 0.06569565 0.16578329 -0.002729204 -0.021688743 0.23377185
-0.20765895 -0.01835672 -0.24986118 -0.0014268702 0.23407435 0.18369983 -0.020395912 0.23854344
-0.15496854 0.2532638 0.22210604 -0.22576971 0.28722206 0.22504057 -0.010826289 0.0923513
-0.13734573 0.107612714 -0.040581137 0.113937244 0.23706801 -0.14666155 -0.06351115 0.10767691
-0.21388821 0.20693494 -0.1791513 -0.15295708 -0.17520514 0.1847982 0.27790987 0.30679038
0.29276577 -0.24389507 -0.2677552 0.2116024 0.26962036 -0.24541493 0.157433 -0.24736014
0.045044955 -0.2003449 0.102759615 0.16135944 0.26257524 0.3347017 -0.22314587 -0.15198995
-0.3029813 0.46277705 -0.25241572 0.114652075 0.04385386 -0.017030425 0.23925418 0.07732926
0.10485277 0.18218303 0.23029174 0.06491195 0.02877295 -0.1474279 0.20977168 0.25950795
-0.009837123 0.3065301 -0.1660628 0.33003297 0.27207184 0.1732553 0.09671511 0.2307684

lstm.weight_hh_l0 f4 [128, 32]
00000000: 7821 2b3e b23b ec3d 0caf e13d 3ffa 2d3c
00000010: acc9 01be cc9a 113e 496e f2bd 4e17 3b3e
00000020: f432 c1bd 9a6c 04be 7aee 7cbc 34ba 41bc
00000030: d610 313e 21aa 1bbd a604 d73d 53e7 153e
00000040: 07a5 ac3d 38d3 04be e9c7 04be 02e7 04be
00000050: f8e4 203e 0834 7abd 1796 133e ba14 28bd
00000060: 6b70 523e 2c75 babd ca8a 67bd abb5 e53d
00000070: 2fbc 5f3d 82ba e5bd dd69 2ebd cca6 ad3c
00000080: 3524 edbd 37a6 9f3d aee3 a6ba 8e73 21be
00000090: bc8c 823d 9b2f 0b3e cda7 0dbe 2a47 3bbc
000000a0: b512 a7bd f2c5 363e a7b3 7ebd b3ec b4bd
000000b0: f1ce 72bd 0be8 e1bc 6968 e9bc 0f1e 073e
000000c0: 0f67 95bd d13f 943c 1fcb 943d ec60 33be
000000d0: 6fc0 cb3d 0978 0bbd 5bad 0f3e 1566 af3d
000000e0: ce95 28be f343 653d eb4f 75bd 94b1 0f3e
000000f0: ff4b cdbd 226d f53d c55c 563d 709b 9d3c
00000100: 74a3 6a3d 699e c9bd 0ac8 703e 4716 81be
00000110: 0cbd 483d a134 c23d 1633 1a3e c640 5c3d
00000120: 41c4 7b3e 267d 55bc 5b2a 4c3e e433 cd3d
00000130: a6f3 583e 478e 983d bf98 e7bd 4c89 ad3c
00000140: c659 ac3d 4e05 0c3e 7eb9 8ebd ca21 c93d
00000150: 8c19 01be fa7c 13bd b1ce 6d3e f08d 023e
00000160: 2fae 203e fd44 76be 58f3 433e da7d 193c
00000170: ec55 e03d a6ec 0f3c b39c 8a3d c141 1bbe
00000180: 5ada 67bc d9bd e5bc 6fd8 233d f504 f73d
00000190: 36a3 fd3c 2f47 8abd 11e9 c33d eb1f ab3d
000001a0: c4eb c4bd d514 bebd 7b51 13be 2b23 fcbc
000001b0: 8d2c 1fbd f3ec 253e 622c 17bd 7e79 c33c
000001c0: 9e62 b1bc f1c1 42bd 9846 44bd 8e6f 923d
000001d0: b09e 933c f2e5 5dbe 3056 debb 43aa efbb
000001e0: 586a 9fbd ad0e 183e 5807 1a3e 666b 0b3e
000001f0: b4a7 0a3e 27fa 2a3d 2b98 a43c 86af 8739
00000200: af9c a2bd ab66 cabc 87ce 3b3d a997 d1bd
00000210: 50a2 803c c6e3 3b3e e03f 113c c906 583e
00000220: 345b 9a3b 8aa8 13be d607 3f3e a633 0d3e
00000230: 49c2 243e 3f1f 3fbd 958b c9bd 72d2 9d3d
00000240: 3959 fcbd ba62 0e3e e468 0abe 4b14 60bd
00000250: 0e7b b23d f277 83bd 8588 2c3c 40c8 70bc
00000260: 90fb 1e3e d216 cbbd 07c6 babd 1a7c d93c
00000270: 4730 383e d9fe 263d a206 3b3b f918 24be
00000280: 7fd7 193d ec78 69bd cb88 3dbe f6ef 8a3d
00000290: 95f0 24be f8bc 1cbd 3922 ee3d 6124 653d
000002a0: 7154 073d 7a77 073d 43d3 dabd c2a5 803a
000002b0: 52b2 f63a 0c0c a73c 4c3a 05bd c0b1 3cbe
000002c0: 6038 a23d 996e 0f3e c531 4bbd 00a2 d5bc
000002d0: e76c 0ebd 7b4d 3cbe 0b93 0cbc 3d03 d7bd
000002e0: d7d7 053d aff5 ac3d 827b d3bd 02dc f73c
000002f0: 5bf0 2a3e d066 30be ba91 263e 1291 a93d
00000300: 8df8 973d 5baf 283c bfa2 b1bd c7fd 313e
00000310: 946f 96be 47b5 39be 34fb 91be 076d 72bd
00000320: bbec a03c f6c1 94be ab5f 16be 6a60 dbbc
00000330: e00f 8ebe 4cd1 ef3d 4c32 45bd 35ac 04be
00000340: 1e63 b0bd 1c55 09bd 4725 3e3e b00a 1c3e
00000350: 9d4c 8c3d 1ac8 0dbe c8da 3ebe cf03 f4bd
00000360: c1ea 163e e86f c13d c4f6 6ebe 1552 88bc
00000370: 3593 273d 14c0 833e 94ea abbd b700 243e
00000380: 1a45 03be bd7d babc b5a6 543d a6ee 213c
00000390: 5d64 85bd 79ae c53d 7824 85bd 3825 04be
000003a0: 290f 28bc 117d a4bd 3353 ca3c f8f5 833c
000003b0: 24fd ccbb 5cd9 2bbc f95b dcbd 4cb8 c6bc
000003c0: 93c7 d3bd edce 1a3d aaee 70be 56be f7bd
000003d0: d3bc 973c a327 903e 1ca0 23bb 3726 59be
000003e0: a7aa 1f3e cac0 383e 8285 cd3c 540d e6bd
000003f0: a874 4abd 72b6 1e3e 6daf 0c3e fe3e 1e3e
0.16711986 0.115348235 0.11019716 0.010618745 -0.12674588 0.14219207 -0.118374415 0.18270609
-0.09433547 -0.12932053 -0.015437717 -0.011824179 0.17291579 -0.038004044 0.104989335 0.14639024
0.08429914 -0.12971199 -0.12966885 -0.12978747 0.15712345 -0.061084777 0.14412723 -0.04103539
0.20550697 -0.0910438 -0.056528844 0.11216291 0.054622825 -0.11217214 -0.042581428 0.021197699
-0.115791716 0.07795375 -0.0012732649 -0.15766737 0.06374499 0.13592379 -0.13833542 -0.011430541
-0.08157865 0.17848948 -0.06218305 -0.08834209 -0.059279386 -0.027576467 -0.02849217 0.1319506
-0.072950475 0.018096836 0.07265305 -0.17517442 0.09948813 -0.03405002 0.14030974 0.085643925
-0.16463396 0.055973005 -0.05989067 0.14032584 -0.10024261 0.11983706 0.052334566 0.019239157
0.057284787 -0.098446675 0.23513809 -0.2521231 0.049008414 0.094826944 0.1505855 0.05377271
0.24586584 -0.013030326 0.19938032 0.10019663 0.21186695 0.07449012 -0.11308431 0.021183632
0.084155604 0.13673899 -0.069689736 0.09820898 -0.12607402 -0.03600786 0.23223378 0.12749457
0.15691446 -0.24049754 0.19135797 0.009368384 0.10953888 0.008784449 0.06768169 -0.15161802
-0.01415118 -0.028044628 0.04000133 0.12061492 0.030961614 -0.067518584 0.09565938 0.08355697
-0.09615281 -0.09281317 -0.14386551 -0.030778488 -0.038860846 0.1620367 -0.03690756 0.023861643
-0.02165347 -0.04754824 -0.047918886 0.071501836 0.018020004 -0.21669748 -0.0067851767 -0.007313998
-0.07783955 0.14849348 0.15041864 0.13615188 0.13540536 0.04174247 0.02009209 0.00025879982
-0.07940041 -0.024707159 0.045851257 -0.10234005 0.015702397 0.18348607 0.008865327 0.21096338
0.0047105793 -0.14419761 0.18655333 0.13789234 0.16089739 -0.046660658 -0.09841076 0.07706155
-0.12321705 0.13904849 -0.13516575 -0.054706853 0.08714877 -0.06419362 0.010530596 -0.014696181
0.15525651 -0.09916462 -0.09119802 0.026548434 0.17987166 0.040770385 0.002853789 -0.16025151
0.03755903 -0.057000086 -0.18509214 0.0678405 -0.161074 -0.038266152 0.11627621 0.055942897
0.033039514 0.033072926 -0.10684826 0.0009815025 0.0018821454 0.020391487 -0.0325263 -0.18427181
0.07920909 0.14007033 -0.04960801 -0.026078224 -0.034771826 -0.18388931 -0.00857998 -0.104986645
0.032676544 0.08445298 -0.103262916 0.030256275 0.16693251 -0.1722672 0.16266528 0.08279623
0.07420454 0.010295714 -0.086736195 0.17381965 -0.29382002 -0.18135558 -0.28511965 -0.059186008
0.019644132 -0.2905423 -0.14684932 -0.026779372 -0.27746487 0.11709842 -0.04814367 -0.12956317
-0.08612655 -0.033528432 0.18568908 0.15238452 0.0685055 -0.13845864 -0.18638146 -0.11914789
0.14737989 0.094451725 -0.23336321 -0.016640702 0.040911872 0.2573248 -0.083943516 0.16015898
-0.12819329 -0.022765035 0.051916797 0.009883558 -0.065132834 0.09652419 -0.065010965 -0.12904823
-0.010257521 -0.08031667 0.024697876 0.016108498 -0.0062557627 -0.010488834 -0.1075973 -0.024257801
-0.103408 0.037794996 -0.23528543 -0.120968506 0.018522656 0.2815524 -0.0024967259 -0.21205984
0.15592442 0.18042293 0.025088076 -0.11233011 -0.04942766 0.15499285 0.13738795 0.15453717

lstm.bias_ih_l0 f4 [128]
00000000: 3931 09be ab99 4cbd 6fa8 3fbd 63ec 723c
00000010: 239c 9fbd 4574 19be 413c 6fbe 8a35 8a3d
00000020: fe4a 223e e48b 05bd ff13 72be 895b 3ebd
00000030: 7137 ca3d 4a99 53be 7da2 a53d 30f4 c7bd
00000040: 5b3b 1abe b0a7 a23d a372 96bc 4fca 9c3d
00000050: f6d6 cab9 9985 c23d 88a4 0fbe 0ceb 72bd
00000060: 8f40 9c3c 9d74 303e 17af eebd 4150 403e
00000070: b74d 3a3e b389 f23d 9588 193e c3d9 143e
00000080: 64df bfbd b382 ca3d 5e6f 9c3d 5090 1abe
00000090: 758e f4bd 22b0 2a3e a315 94be 1bef e73c
000000a0: 1764 31bd 8075 eebd 1329 1bbe 1b86 de3d
000000b0: c6a2 57bc d5ac 0ebe edc3 49bd 0c73 633d
000000c0: 387f 633d 3ba9 8d3d 761d ddbd 6379 9c3d
000000d0: 32c5 93bd a3be fb3d dd71 083e b67f 14be
000000e0: 80c1 823c d592 bf3d 03c6 8f3d 4b5a 863d
000000f0: 7d54 35be 8b8f 8ebd 74b7 80be 3275 18be
00000100: ccd1 a3bd 53cc 1abe dec9 03be 0cd8 4b3d
00000110: 53e9 033b 9cf7 ef3d f448 93bd c97c f23d
00000120: 3869 163e 8aad b83d 2213 373e af0c c93c
00000130: de6a 2b3e 1849 d8bd fa59 8ebd f3e3 883d
00000140: c4d2 c43c e28f b33d 431b 3e3d 0f39 8abc
00000150: 3cfa a43c 2a3e 67be 995b cf3d c51e b83d
00000160: 5f19 96bd d888 f0bd c045 da3c dcf3 203e
00000170: 7ed4 67bd 61da e1bb 2512 353d 4486 353d
00000180: cfd9 163c d637 eb3d 6fc3 dd3d b86b 843d
00000190: fbd4 0c3e eccd 173e 1960 36be 8298 45be
000001a0: e9e6 eb3a 4020 51be 3a65 14bd 367f 23be
000001b0: 9846 093d 9ec6 e5bd 7d1c d53d 1175 23be
000001c0: db93 b3bd 15a9 ed3d ea6f 253d 9e5d 033e
000001d0: 6ec3 24be f62c 09be 4b44 213e b7e0 07be
000001e0: aea4 403e 6503 c7bd 73e1 e53d 27d0 c8bc
000001f0: 9576 1a3e 38a6 5dbd 33f2 a83d ad83 c0bd
-0.13397683 -0.049951237 -0.04679149 0.014826867 -0.077934526 -0.1498576 -0.23362829 0.06748493
0.1584892 -0.032604113 -0.2364044 -0.046474013 0.09873856 -0.20663944 0.08087633 -0.09763372
-0.15061705 0.0794214 -0.01836521 0.07655775 -0.000386886 0.09498138 -0.14027607 -0.05930619
0.019073753 0.17231984 -0.116544895 0.18780614 0.18193708 0.1184267 0.14993508 0.14536195
-0.0936878 0.0988821 0.07638429 -0.15094113 -0.11941234 0.16668752 -0.28922758 0.028312257
-0.043308344 -0.11643505 -0.15152387 0.10865422 -0.013161367 -0.13933118 -0.049259115 0.05552964
0.055541247 0.06917044 -0.10796635 0.0764034 -0.072153464 0.122922204 0.13324685 -0.14501843
0.015961409 0.09354178 0.070201896 0.06560191 -0.17708011 -0.069609724 -0.25139964 -0.14888456
-0.07999 -0.15117006 -0.12869975 0.049766585 0.0020128086 0.117171496 -0.07191649 0.11840207
0.14688575 0.09017475 0.17878392 0.02454218 0.16739985 -0.105608165 -0.069507554 0.06684103
0.024026282 0.08767678 0.046412718 -0.01687291 0.020138852 -0.22582307 0.10124893 0.08990244
-0.07329058 -0.11744851 0.026644588 0.15718025 -0.056599133 -0.006892488 0.044206757 0.0443175
0.009207203 0.11485259 0.108282916 0.06465858 0.1375312 0.14824647 -0.17810096 -0.19296458
0.0017997894 -0.20422459 -0.03622935 -0.15966496 0.03351459 -0.11219524 0.10405824 -0.15962626
-0.087684356 0.116045155 0.040389933 0.12828681 -0.16090176 -0.13396057 0.15748708 -0.13269316
0.1881282 -0.09717444 0.11224642 -0.024513317 0.15084298 -0.054113597 0.08249321 -0.09400115

lstm.bias_hh_l0 f4 [128]
00000000: c132 e53d 4485 3e3e f01d 313e 2b5f 34bc
00000010: c322 013c dd5c ec3c 9081 25be b55b b5bd
00000020: fc07 9bbd da6f efbd 0b9d 2dbe cb88 efbd
00000030: c83e 263d c0b9 623d 8ae2 1ebd b754 5dbe
00000040: db14 1fbe 5003 e0bd f437 4fbd a1fc 283d
00000050: 943e 6a3d 70e5 58bd 945c 11be 2191 f53c
00000060: ae4e a2bd 2482 92bd 2c89 b93d 8069 fdbc
00000070: 205b 2d3e 5a9c 59bd 73d2 76bd 97f8 d13d
00000080: 7635 c0bb 2220 89bd ab0e 963c ad83 42bd
00000090: f843 7cbd d94c cbbd cf43 0e3d a2f9 9abd
000000a0: 7244 233e 2a99 5d3d 2b56 d7bc 88ff e0bd
000000b0: 2f64 1ebd 13ee e83d 0fad 6cbc 5ccd bcbc
000000c0: a0b1 81be f8d4 023e 38c6 0bbe 21e0 443b
000000d0: 5ed1 173d 08e4 9abd dc1d 07bd d890 febc
000000e0: 50fe 15bd 613c e8bd 4222 14bc 6315 79bd
000000f0: c7df 16be 53a5 58bd 8bd2 1f3d 1d5d a43d
00000100: cec7 593d 4ca2 a8bd e93c eb3d ad9c b4bd
00000110: e752 473b 5b2b 04bd b95a a03d 6b70 8a3d
00000120: b274 373e 2f6c 9bbc 232f cfbd 6f4e 823d
00000130: 734c dabd 7e1e 773c 93db d13d d631 01bd
00000140: ba15 2cbc 5ff7 a9bd 9b16 b33d bd72 643d
00000150: 7f86 57bd 754f 33bd a5fb 7a3b 7be1 853c
00000160: 487d 05be 93a6 1f3e 60a5 6d3d b5b2 3d3c
00000170: d94e 02bd 6763 3bbb 9653 663d e070 34be
00000180: 0aac a6bd 67c6 f43d 870a 0c3e 3e25 0abe
00000190: f34e 893d f474 08be 34c1 ef3c d4b3 4fbe
000001a0: 5b87 023e 273f 573d be92 52be 8123 b03d
000001b0: d792 0dbe 3074 b93c 77c9 983d 68ef 85bc
000001c0: a6a1 fcbd 4a06 393e 123b 32be d49a 0b3e
000001d0: 6ef3 e83c c2db 393b fcf0 80bc 0fc9 293e
000001e0: 79ad 0dbd 4c6e 453e f6b8 6bbd a553 903c
000001f0: 7219 b83d f382 9e3c d8fb 2ebe 4019 a23d
0.11191321 0.18605524 0.17296576 -0.011009018 0.007881823 0.028852874 -0.16162705 -0.08855382
-0.07569882 -0.11691256 -0.16954438 -0.11696013 0.040587217 0.055352926 -0.038790263 -0.21614347
-0.155353 -0.10938132 -0.05059047 0.04125655 0.057188585 -0.052953184 -0.14195472 0.02997643
-0.07925163 -0.071537286 0.090593666 -0.030934095 0.16929293 -0.053127624 -0.060259294 0.10252493
-0.005865748 -0.06695582 0.018317541 -0.047488857 -0.061588258 -0.09926767 0.034732636 -0.07567145
0.15944079 0.054101147 -0.026286205 -0.10986239 -0.03866976 0.11373534 -0.014445557 -0.023047142
-0.2533083 0.12776554 -0.13649833 0.0030040818 0.037064902 -0.07563025 -0.03298746 -0.031074926
-0.036619484 -0.11339641 -0.009041371 -0.06081141 -0.14733802 -0.05289204 0.03901915 0.080255724
0.053169064 -0.08234081 0.11486227 -0.08818946 0.0030414404 -0.03226791 0.07829804 0.06759723
0.1791561 -0.018972484 -0.101164125 0.06362616 -0.10659113 0.0150829535 0.102469586 -0.031541668
-0.010503227 -0.082991354 0.08744546 0.055773485 -0.0526185 -0.043776948 0.0038296964 0.016342869
-0.13036072 0.15590887 0.058019042 0.011578252 -0.031813476 -0.0028593184 0.056232058 -0.17621183
-0.081382826 0.11951905 0.13675891 -0.1349077 0.067045115 -0.13325864 0.029266931 -0.20283443
0.12746947 0.05255046 -0.2056379 0.08600522 -0.13825546 0.02263841 0.07460301 -0.01634951
-0.123355195 0.18068805 -0.17405346 0.13633281 0.028436389 0.0028359746 -0.01573991 0.16580604
-0.034589265 0.19280356 -0.05754944 0.01761801 0.08989228 0.01934955 -0.17088258 0.07914972

lstm.weight_ih_l1 f4 [128, 32]
00000000: cb21 09bd ef31 45be 9184 823a 0269 c0bd
00000010: 040c 533e a9ee 733e 492d e83d 0944 473e
00000020: 2726 b33d e6fc 6a3e 1d5d 0b3e 4e6a 623e
00000030: 7137 a73d 79ae 1bbe fbf1 73bc 0d46 203d
00000040: 303d d7bc cb6c fc3d ee81 08be 1133 0dbd
00000050: e7a3 e33c 185c 5ebc 52cb 87bd b597 82bd
00000060: 785c fc3d 436e 0fbe 7c4b c53d 0cb0 243e
00000070: 3bd0 d23d 510d c13d 71f6 543d 8570 023d
00000080: c601 14be f28c 36be 83fd 41be 1b95 c83d
00000090: de1c 3cbd 52c2 923d a8d9 edbc bc9a a53c
000000a0: 239f da3d 959d bc3e 53d1 263e 5404 383d
000000b0: 93cb 2d3d 1e87 b53c 5c74 83bd 82ec 5e3e
000000c0: ae37 513e 23cf 3f3d 7216 1abe 5077 823d
000000d0: ac38 a4bd 25fa 063d 80ee 1a3e 6ca4 4b3e
000000e0: c367 6abc fa8b f9bd 1da7 603e 10c7 2dbc
000000f0: 976b 123e d438 d1bc cc18 953d 3a09 b83c
00000100: 3794 0fbe bb85 633e 01d2 803e f2a3 b6be
00000110: 2cd0 4e3c 518f 3a3e 0e16 e63d f679 41be
00000120: 0da7 3fbd 923c 31bd 162e 2dbe 57b0 493e
00000130: 37d1 a53e 24d1 1cbe 7fda 03be 7610 5d3e
00000140: 9642 57be e76f 893e f142 82be f6c6 a9bc
00000150: c588 7ebe cd62 c13d 238c 6e3e d95d 4c3e
00000160: 5e98 003e 7ab1 e2bd e0c7 00be 09c7 4b3e
00000170: 9cdc 5a3e 8358 86be c557 813e 062d 97be
00000180: 7b24 cdbd 19bb c23d c6af 0f3b 4c8c 16bd
00000190: 4731 793d a292 293e 520a 3e3e 78a8 423b
000001a0: 1822 0f3d 5292 383e ae2f 5ebd 4d1c afbd
000001b0: a6ff 313d 3eaf 81bd 730e 90bd 20cb efbd
000001c0: cab2 1a3d 5f9b 813e e706 18be 23ce 8ebc
000001d0: 609d 993d 9bf6 8cbd d1e4 313e 8422 fa3d
000001e0: e42b 613e 3e1a 62be fced 3c3d 08aa f23d
000001f0: f5d8 3d3e 47d4 39be 74f8 473e d3d1 03be
00000200: ecba 823d 2c46 703d abfe a53d 2886 48be
00000210: 23e6 d63d 17c4 2abd eceb 07be ab43 d43d
00000220: b25a 02be 2548 913e 847b 2bbd 5798 d7bc
00000230: 66b4 9ebc 9604 ac3d 9285 4bbd 3e9f 173e
00000240: 1c08 21be ad22 4fbd cab8 87be 9496 25be
00000250: 5ff8 48be 5f1e 5dbc 1a43 103e 2dad 7c3b
00000260: 1f6a ff3d d4a6 9b3d 68eb 473e bd8c ddbd
00000270: 9566 463e 5c55 ebbd 21e7 36be ad2e c1bd
00000280: 71ca 94bd 57f0 2ebe 375a bebc a5c0 b33d
00000290: bd90 813e 069c 163e afb8 cfbb 7d7c 0b3e
000002a0: a481 0c3e 21bb 2e3e bfbb 383e 6ded 023d
000002b0: c02c c6bd 2f2e 22bd 3eea adbd 9edf 3d3e
000002c0: d1c6 303e 2563 373e cd6e 1abe 9bc1 42be
000002d0: 1ba0 153d e25c 2cbe 2a36 13bd afcc 713e
000002e0: 030a 0d3e 9481 a2bd 99b4 6c3e 4eca 8abb
000002f0: 3383 4a3e 5233 913d 5716 38be 5e6b 433b
00000300: 7447 c83d 3d71 e4bd 5f2a 76bd 1528 093e
00000310: deb2 0bbe fc84 0ebe 48dc 3dbd daa8 11be
00000320: 122f c1bd 95e9 663d 39fa eabc 635f bebc
00000330: 33fd 4abe c6be 3f3e c7dd bfbd 7cad ee3d
00000340: 89bb 223d bd04 91bd dad9 163e 4ae7 bfbb
00000350: 897a d13d 12c4 dfbd 3e9d e63d e2f5 a8bd
00000360: 038a 65be 9cef d0bc 0ba2 5f3d 46ea e6bd
00000370: fe87 80ba 5aae a43a 9753 0e3d f744 1abd
00000380: 93ac 96bc 4f44 2d3e f3d1 413e 29be 443b
00000390: 93ac 1e3d 1702 b2bc cdc0 aa3d 1ca0 393e
000003a0: 3360 943c 6b31 21bd 4eeb fe3b 284b 613e
000003b0: 2f9f 543c 3797 10be 1689 99bd e6a1 513d
000003c0: 0cc0 43be 7f94 5b3e 61d6 86be bca8 50bd
000003d0: d16b dcbd da59 11bd e78d b43c aaee 503e
000003e0: fbe2 5c3e 130f e8bc 1ba2 8fbd 3b99 7f3e
000003f0: d290 633e a0b9 85be 7ac6 843d d4d4 89be
-0.033479493 -0.1925733 0.0009957721 -0.09395029 0.20610052 0.2382151 0.113367625 0.19459547
0.08747511 0.22948036 0.13609739 0.22110865 0.081648715 -0.15203275 -0.014889236 0.039129306
-0.026274294 0.12325438 -0.13330814 -0.03447253 0.027788116 -0.013571762 -0.06630577 -0.06376592
0.123223245 -0.14006905 0.09633538 0.16082782 0.10293623 0.09426368 0.051992837 0.03184559
-0.14453802 -0.17827204 -0.18944363 0.097940646 -0.045925967 0.0716597 -0.02903445 0.020215385
0.10674884 0.36838976 0.16290788 0.044926003 0.04243047 0.022159155 -0.06418678 0.21769908
0.20431396 0.0468284 -0.15047625 0.06370413 -0.08018622 0.0329534 0.15130043 0.1988694
-0.014306965 -0.121849015 0.21938749 -0.010606542 0.14298855 -0.025539793 0.0728012 0.022465337
-0.14021383 0.22218983 0.2516022 -0.35671955 0.012622874 0.18218733 0.11234675 -0.1889418
-0.04679017 -0.043270655 -0.16912112 0.19696175 0.3238618 -0.15314156 -0.12876318 0.2158831
-0.21021494 0.26843187 -0.25441697 -0.020724755 -0.24856861 0.09442673 0.23295645 0.19957675
0.12558123 -0.11069007 -0.12576246 0.19900145 0.21373218 -0.26239404 0.25262275 -0.29526538
-0.10016724 0.09508342 0.0021924837 -0.03675489 0.06083801 0.16559842 0.18558624 0.0029702466
0.034944624 0.18024567 -0.05424469 -0.0855032 0.043456696 -0.06332253 -0.07034006 -0.11708665
0.037768163 0.2531385 -0.14846383 -0.017432278 0.0750072 -0.06882974 0.17372443 0.122136146
0.21989399 -0.22080323 0.046125397 0.11848837 0.18539794 -0.18147384 0.19528371 -0.1287301
0.06383309 0.05866067 0.08105215 -0.19582427 0.10493114 -0.041690912 -0.13273591 0.10364469
-0.1272991 0.28375354 -0.04186584 -0.026317758 -0.01937313 0.08399312 -0.04968793 0.1480684
-0.1572575 -0.05057018 -0.2650817 -0.16170722 -0.19625996 -0.013496011 0.14088097 0.003855537
0.12471413 0.07600179 0.19523394 -0.10817859 0.1937507 -0.114908904 -0.17861606 -0.09432731
-0.07265175 -0.1708387 -0.023236377 0.087769784 0.2530574 0.14707956 -0.0063391547 0.13621707
0.13721329 0.17063572 0.1804037 0.031964708 -0.09676504 -0.039594825 -0.08491944 0.18542334
0.17263342 0.17908914 -0.1508133 -0.19019167 0.03652964 -0.16832307 -0.035940327 0.23613237
0.1377335 -0.07934871 0.23115768 -0.0042355424 0.19776611 0.07089867 -0.17977272 0.0029818635
0.097792536 -0.11154411 -0.060099002 0.13394196 -0.13642451 -0.13917917 -0.046352655 -0.14224568
-0.09432806 0.056375105 -0.028683769 -0.023238843 -0.1982315 0.18725118 -0.093684725 0.11654183
0.03972963 -0.07080982 0.14731541 -0.005856429 0.1022845 -0.10926069 0.1126046 -0.082500234
-0.22415929 -0.02550488 0.054597896 -0.11275153 -0.0009806154 0.0012564168 0.034747686 -0.037663426
-0.018392837 0.16920589 0.18927746 0.003002057 0.0387388 -0.021729512 0.08337555 0.18127483
0.018112278 -0.03935377 0.0077795153 0.22001326 0.012977405 -0.14120184 -0.0749685 0.05117979
-0.19116229 0.21443366 -0.26335433 -0.050942168 -0.10762752 -0.03548608 0.02204032 0.20403543
0.21570961 -0.0283275 -0.07013341 0.24960797 0.22223213 -0.26118183 0.06483169 -0.26920187

lstm.weight_hh_l1 f4 [128, 32]
00000000: 7e4f 323e d6bf 453d 334e a23c d415 e43c
00000010: 413a f0bd bb57 183e a8a9 523d 9013 47be
00000020: 2b8b 853e 1581 1b3e 51bf 673e 584d 873d
00000030: 583f ef3d ad03 2bbe 7825 5cbd 92fd ec3d
00000040: 3f6e 2fbe 7013 8b3d 4e61 d73c 1642 eabb
00000050: a57b 513d ac75 0b3d ff9e 5c3e 5caa 723e
00000060: c654 4bbd 65d2 b6bd c96a 6c3e 48b0 23ba
00000070: ce61 45bd a99d 71bd a995 973d d5ad d13d
00000080: 79d7 61bd 9a23 e7bd 61cd 6abd 5035 14be
00000090: 7c7b 50be ac9a 9fbd b78d 69bd f183 b8bb
000000a0: a5b5 fa3c 3da3 003e 24e0 b9bd e764 4cbd
000000b0: 6ae9 4cbe 8b2e 883d ad5b f53c 8257 2abe
000000c0: 4a00 1cbd 23a1 38be 3e59 bebd a117 013e
000000d0: 6e2f 09bd 287c 50bd 404f 78bb 6bc5 94bd
000000e0: 888b 983d 34c6 e63d ed03 ac3d 1b6e 85be
000000f0: 4716 1abe 3280 cfbb ff23 9dbd 8393 4abd
00000100: f01f 83bb a821 41bc 776c 57bb 154c f1bd
00000110: f024 7b3d a21d 48be c288 05bc 6018 47be
00000120: bba2 b1bd bbb5 6b3e c902 eabd a8ce e2bd
00000130: c1ac adbc 93ee 113e 8496 2d3e 4362 b23b
00000140: f960 b13d 9987 29be a069 56be 9f83 7bbd
00000150: 5750 023e 3592 143e 26f3 77bc de10 913c
00000160: 76a0 023e 3014 653d 6dee 51be b73b 5cbe
00000170: 46eb acbd 678c 86be da1b 0dbe 8d0c 933d
00000180: c54a 05be 06ba e9bd 1b5c 6e3e 8bd2 39bc
00000190: 848e 923e 28eb 353e cb20 7cbe 8bb2 dbbd
000001a0: fe31 f93d 0ab3 81bc 3160 033d 1f05 fabd
000001b0: b012 eb3d 75c2 adbc 3774 153d c3bc fdbd
000001c0: 69cb 143e f766 323d af07 123e 60e5 f3bd
000001d0: 6bce 6e3c 41f9 853d 5974 653e f9d3 413e
000001e0: b4c5 023e ea87 4e3a 73d0 2139 b760 f5bd
000001f0: 2a14 48be d98b 61bd 92e7 5d3d 16e7 cd3c
00000200: 5275 86bd 37ae 183e 29c6 13bd aec6 063e
00000210: 4a26 093e 8d44 aa3d 29cc 03be d9c5 803d
00000220: 6df2 48bd cf8a 353e 83cd a6bd 0148 c2bd
00000230: 30ae 89bd 3baf 08bd dbd2 87bc 92ea 9bbd
00000240: 41a3 21be 963e acbb 49af 43be cf2b 6e3e
00000250: c638 e03c 0d74 31bd d2a3 ca3d 1390 e83d
00000260: cd2c 033e 8558 06bd 4b8e 4c3d a3c1 d6bc
00000270: 31d9 d6bb 37b2 15be bd62 f33d 2767 36bd
00000280: 1763 463e 3ae9 71bd 3e52 acbd 01f3 f63d
00000290: 5064 a13d 86ca 423e 1912 263d bd95 e03d
000002a0: e69e 3f3e 49f1 353e 9b65 af3d b879 d53d
000002b0: 4ae2 0f3e bfb9 e43c cbc2 283d d8e0 733d
000002c0: ed00 aabd 77ea e0bc c9c4 84bd f3c2 3bbb
000002d0: 43f9 6e3e cf0c 98bc 9c72 3cbd b29a 193e
000002e0: 9395 a83d 9502 cd3d 0b67 cf3c a5c8 1fbe
000002f0: 2b8b 11be 915d 1a3e 19e1 f83d 0e55 033e
00000300: 0b34 67bc b3cc 383d 4f25 3bbe 3ffc f13d
00000310: 93d9 823c 7fa0 d43d 73a6 b6bd 6841 44be
00000320: 5a73 da3b 7a0e 18bc 44a9 103e 2d2f 073e
00000330: 075e a7bd 8200 22be db59 e4bd c929 003e
00000340: 14b7 ab3d 558b d6bc c577 d1bc 457d 9fbd
00000350: b5c8 113d 3d31 c43d 2a10 523b aec3 c6bd
00000360: b962 a7bd c3fb 15be af40 1abe ddd4 ebbd
00000370: 7696 343e f747 cbbd ea46 7c3d 5e36 69bd
00000380: 645c aabd cd40 babc e59a 913d fb6f a5bd
00000390: 67a3 2c3e 6cd7 84bd a10f bf3d 6256 04bc
000003a0: 8570 403d aa85 8c3c 2886 1f3e f865 5cbe
000003b0: e9d2 5a3d 2dc9 43bd 2bfc 9a3c 43b7 7a3d
000003c0: e243 2d3e 75fa b33c 5ccb 5c3e 4464 8cbc
000003d0: 25a2 623e 7ad5 47be 0ebb 4c3e 9c4a 823e
000003e0: cf1e bfbd c711 f9bc 7502 903e 7c62 36be
000003f0: dd49 4cbe cf72 ce3d 7bf2 823e 2ef7 aabd
0.17413136 0.048278652 0.019812679 0.02784244 -0.11729861 0.14877217 0.051431328 -0.19441056
0.2608274 0.1518596 0.22631575 0.06606549 0.11682004 -0.16700621 -0.05374667 0.11571802
-0.171319 0.06790817 0.026291516 -0.0071489913 0.051143307 0.034047768 0.21545027 0.236978
-0.049641393 -0.08926848 0.2308761 -0.00062442245 -0.048188977 -0.058988247 0.07401592 0.10238234
-0.05513713 -0.11286087 -0.05732477 -0.14473462 -0.20359606 -0.07793173 -0.057019915 -0.005630963
0.030604193 0.1256227 -0.090759546 -0.049900915 -0.20010915 0.06649502 0.029950941 -0.16634944
-0.038086213 -0.18030219 -0.09294365 0.1260667 -0.033492498 -0.050899655 -0.0037889034 -0.07264217
0.074484885 0.11268273 0.08399186 -0.26060566 -0.1504756 -0.0063324207 -0.07672881 -0.049457084
-0.00400161 -0.011787809 -0.0032871047 -0.117820896 0.061314523 -0.19542554 -0.008150281 -0.19442892
-0.086736165 0.23018543 -0.114263125 -0.11074573 -0.02120054 0.14251165 0.16951948 0.0054438426
0.08661074 -0.16555633 -0.2093873 -0.06140482 0.1272596 0.14508899 -0.015133655 0.017708238
0.12756523 0.055927455 -0.20501108 -0.21507154 -0.08443312 -0.26278993 -0.13780156 0.07180128
-0.13016804 -0.11412434 0.23277323 -0.011341701 0.28624356 0.17765486 -0.24621885 -0.10727414
0.121677384 -0.015832443 0.032074157 -0.12208008 0.11478174 -0.021210888 0.036487784 -0.12389519
0.1453072 0.043555226 0.14260744 -0.11908984 0.014575581 0.06541682 0.22407664 0.18928517
0.1277073 0.0007878529 0.0001543181 -0.119813375 -0.19538942 -0.05506501 0.05417592 0.025134604
-0.06565346 0.14910208 -0.036077652 0.13161728 0.13393512 0.08313856 -0.1287085 0.062877364
-0.04905932 0.17728733 -0.08144667 -0.0948639 -0.06722677 -0.033370238 -0.016580036 -0.076131
-0.15784933 -0.0052564843 -0.19109835 0.23258899 0.027370822 -0.043323565 0.098945275 0.11355605
0.12810059 -0.032799263 0.04994039 -0.02621538 -0.006556653 -0.14618765 0.11884067 -0.044531967
0.19373737 -0.059060313 -0.08414124 0.12058068 0.07880461 0.19022569 0.040544603 0.1096606
0.18712959 0.17767824 0.085643016 0.10423607 0.14051166 0.027920602 0.041201394 0.0595406
-0.08300958 -0.027455552 -0.06482846 -0.0028650134 0.23337273 -0.018560795 -0.046007738 0.15000418
0.08231654 0.10010258 0.02531769 -0.15603884 -0.14213245 0.15074755 0.12152309 0.12825415
-0.014111529 0.04511709 -0.18275951 0.1181569 0.015972888 0.10382175 -0.089184664 -0.19165576
0.006666583 -0.009280795 0.1412707 0.1320159 -0.08172231 -0.15820506 -0.11149951 0.1251594
0.08384529 -0.026189486 -0.025569806 -0.07787565 0.0355918 0.09579704 0.0032053092 -0.09705292
-0.08173127 -0.1464682 -0.15063737 -0.1151521 0.17635521 -0.099258356 0.061591066 -0.056936614
-0.08318403 -0.022735978 0.07109622 -0.08077999 0.16859208 -0.06486401 0.09329153 -0.008077236
0.046982307 0.01715358 0.1557852 -0.21523273 0.053423796 -0.047799278 0.018919071 0.06120993
0.16920426 0.021970013 0.2156195 -0.017137654 0.22132166 -0.19515029 0.1999323 0.25447547
-0.09332048 -0.030403985 0.28126875 -0.17811006 -0.19950052 0.10080492 0.25575623 -0.08347927

lstm.bias_ih_l1 f4 [128]
00000000: b17a 5a3e 6c21 ea3d f925 f7bd abbe 8a3d
00000010: 0313 a0bd b9bf 0f3c 6c4f 543e d48e 433e
00000020: cae5 d93d 9542 86bd 2839 933e e714 2b3e
00000030: b322 90bd 9b7c 73bd 9f3f 4e3c 479a 453e
00000040: e5fd 3d3c dcd5 2e3e f50c 003e 08b8 803b
00000050: 6c0a 06be db40 ab3d 2009 c8bd e3cc 5d3e
00000060: 9184 5e3e 5eee 383d 0678 46be c9f3 ecbd
00000070: 9eb3 763c 8da6 8d3d 61ab 48bd 9914 083e
00000080: 9ab5 6c3d c67f 0cbe d106 ac3d 0231 b6bd
00000090: 7023 d7bd 3647 8ebc 7ae3 08be f2cd 4bbd
000000a0: d250 aebd 12c3 da3c dc3c 99bd a83c 48ba
000000b0: acc5 98bd 5ebf fbbd 7c10 78bd 8e87 d0bd
000000c0: 0444 573d 4fee 213d d42c b93d d39d 0abe
000000d0: 6f96 2cbd 48fc debd 8073 0f3e dc46 c53d
000000e0: 2b97 ffbc 13f8 383e 64e7 b23c 53d1 893c
000000f0: 2c1b 1c3e a5cb f0bd 47d3 133e 4dae f7bd
00000100: 783a 083e 1d66 22bd 0d8c 013d e82a a83c
00000110: 40f1 de3c fdd8 f3bc 7c16 fdbd d77d 26be
00000120: 6c79 dc3d 6808 de3d 957b 6b3d cb12 48be
00000130: a707 abbc 7a7d 7dba abfe 37be 642a de3b
00000140: e66a e43d 436f e8bd 7721 233e 6943 c1bd
00000150: ace6 433e 1792 25be 809a f9bb 6130 e43d
00000160: 3c28 de3d d80b e9bc 9d56 7f3d abec 89bd
00000170: be09 29be 6aa8 0b3e f6b7 6a3e 4613 9f3d
00000180: 8c09 563e 4c78 533e 9139 a63d 6643 e63d
00000190: b143 273e 6e24 0e3d bea3 3dbd 50b1 febd
000001a0: 1dcc 4a3e bfcd 803d 822a 153e f3d0 473d
000001b0: 941a 6f3e 9eff b8bc f634 c5bb a3ba aa3d
000001c0: 08f0 8b3c 71ba 5d3d 20b2 373e 9719 47bc
000001d0: 626a 213e ab87 6a3c b5fa 883d 7e44 7f3d
000001e0: 5388 d9bc 9118 983d 3c10 e63d 8bcf afbd
000001f0: 98b5 353e 89be 0ebd 9a6e 0bbe c192 bb3d
0.21335866 0.11432156 -0.120677896 0.06774648 -0.07816126 0.008773738 0.20733422 0.19097453
0.10639532 -0.06555668 0.28754544 0.16707192 -0.07037868 -0.059445005 0.012588411 0.19297133
0.011596178 0.17073768 0.12504943 0.0039281882 -0.13089913 0.083619796 -0.097673655 0.2166019
0.21730258 0.0451492 -0.19381723 -0.11569936 0.0150574725 0.06916533 -0.048991565 0.13289107
0.057790376 -0.13720617 0.083997376 -0.08896066 -0.10504806 -0.01736794 -0.13368025 -0.04975695
-0.08511509 0.026704345 -0.07482311 -0.0007638433 -0.07459578 -0.1229236 -0.060562596 -0.10182105
0.0525551 0.03953391 0.090417534 -0.13536768 -0.042135652 -0.108879626 0.14008904 0.09632656
-0.031200012 0.18063383 0.021838851 0.016823446 0.1524474 -0.11757592 0.14436065 -0.12093792
0.13303554 -0.039648164 0.031627703 0.020528272 0.027214646 -0.029766554 -0.12357804 -0.16258942
0.10765347 0.10841447 0.057490904 -0.19538419 -0.020877672 -0.00096698815 -0.17968242 0.0067799557
0.11153202 -0.113493465 0.15930735 -0.094366856 0.19130963 -0.1616901 -0.007617295 0.1114204
0.10847518 -0.02844803 0.06233846 -0.06734594 -0.16507623 0.13638464 0.22921738 0.07767348
0.2090208 0.20651358 0.08116449 0.11243324 0.16334416 0.03470271 -0.046298735 -0.124361634
0.19804426 0.06289243 0.14566997 0.048783254 0.23349983 -0.022582825 -0.0060182763 0.083363794
0.01708223 0.054132883 0.17939043 -0.012152097 0.15763238 0.014314572 0.066884436 0.06232118
-0.026554262 0.07426561 0.11233565 -0.085845076 0.17745054 -0.034849677 -0.1361641 0.091588505

lstm.bias_hh_l1 f4 [128]
00000000: ecdf 1bbd 7b3b ea3d c5ec 5f3d f455 b1ba
00000010: f861 c93d 3c22 553e 2b15 103e 6a07 713d
00000020: 36de e0bd 1a2f 8bbd ab0a f33c 6d53 673e
00000030: eb9d 663e fee6 203e c556 2c3e b238 153d
00000040: f119 bdbd 53e1 00be 3d70 a1bd e0b3 f4bd
00000050: 627a b8bd 6aeb 043d ea4d 43bd f207 c0bd
00000060: 7ee1 c7bc 4e63 18bd 28bf dd3d adf3 b2bd
00000070: 126a e03c 0c78 df3d 930f 903d 9d52 08bd
00000080: 5009 e93d b12d adbd bd85 cc3d 0e3e 993d
00000090: 2ab0 e2bd 0f36 e2bc b8b2 673c 980f f43d
000000a0: c2bf 323e 8f7b 3f3e 98a2 973c 0abd 35be
000000b0: 6851 f2bb 0352 933d b684 4c3e a1ce a43d
000000c0: da48 5fbd fc3c 9abd f3a7 30bd f084 d4bd
000000d0: 8910 d93d 2d07 16be 0514 0f3e 45ff f83d
000000e0: 672a d23c d142 173e ed1a 7cbc c55b 023d
000000f0: 483e c63d 75b5 40be c2af 70bd 6059 153d
00000100: 7d31 f7bd 220d 42bd 34aa f8bd e28f 17be
00000110: 3f96 873d 3e85 033e 9a86 04be 9c21 debc
00000120: 462f ce3d 0a1d a5bd 23f7 153e f1e3 cfbd
00000130: 6c06 0c3d 98b9 3fbe d0fd bebd 21f3 f3bd
00000140: 868e 5bbd d68c b23d d076 873d 57c1 1cbd
00000150: 64b7 813d 8988 0abe ae36 e43d feae 1cbd
00000160: 8dbd 1d3e eb7f 40bd 60ba 013e e18b 6b3d
00000170: 778e 3a3c 44a7 b0bd 11dc 7b3d bc3e 89bd
00000180: beb3 873e 8824 703e 9342 383d bab0 5b3e
00000190: 1129 2c3e 785c 083d 41be 1cbd 7bbb 013c
000001a0: 9bb3 2d3d 2b8e e93b ae01 763e 7c18 a03c
000001b0: 44c2 24bd 4ae7 533e fe3a da3d 4de7 05be
000001c0: 4f07 43bb d05c 1c3e c7e9 aebb 44b8 05be
000001d0: 9935 11be 0391 91bd acae b4bc 046e 8e3d
000001e0: 50bc afbc 2331 743e d9d6 4a3c e2bb 69be
000001f0: 5654 223d ed50 3bbc 15a3 903c c96a 413e
-0.038055345 0.11437126 0.05466916 -0.0013529644 0.09833139 0.2081384 0.14070575 0.05884496
-0.109798834 -0.06796093 0.029668173 0.22590418 0.22521178 0.15713117 0.16829975 0.036431022
-0.092334636 -0.12585954 -0.07882736 -0.11948371 -0.09007718 0.03245107 -0.047681727 -0.093765154
-0.024399515 -0.03720408 0.10827476 -0.08737884 0.027394328 0.10911569 0.070342205 -0.03328191
0.11378729 -0.084559806 0.09986446 0.07482539 -0.11068757 -0.027613668 0.014141731 0.11917037
0.17455962 0.18699478 0.018510148 -0.17747894 -0.0073949583 0.07193377 0.199725 0.08047224
-0.054512836 -0.07531163 -0.04312892 -0.10376918 0.10598857 -0.14651175 0.1397248 0.12158064
0.025654985 0.14771582 -0.015387279 0.0318258 0.09679848 -0.1881922 -0.058761366 0.036462188
-0.12069986 -0.047375806 -0.12141839 -0.1480098 0.06620454 0.12843797 -0.12941971 -0.027115636
0.100676104 -0.080621794 0.14645056 -0.10150898 0.034185812 -0.18723142 -0.09325755 -0.119116075
-0.053602718 0.087182686 0.066144586 -0.03827032 0.06333807 -0.13528647 0.11143242 -0.038252823
0.15404339 -0.046996992 0.12668753 0.057506446 0.011386505 -0.086256534 0.06148917 -0.06701419
0.2650432 0.23451436 0.044985365 0.21454135 0.1681254 0.03329131 -0.038267378 0.007918234
0.042407613 0.0071275434 0.24024078 0.019542925 -0.04022433 0.20693699 0.10655783 -0.13076515
-0.0029758995 0.1526978 -0.005337927 -0.13058573 -0.14180602 -0.07107737 -0.022055946 0.069545776
-0.0214521 0.23846869 0.012380325 -0.22825578 0.03963121 -0.011432868 0.017655889 0.18888392

fc.weight f4 [1, 32]
00000000: 13dd 93be fe52 343e 7f18 57be 30a1 8bbe
00000010: 2bba 27be 626c 3fbe 93fa 2b3e 0032 4fbe
00000020: 4dbc 65be 94d5 583e 3d0b 2dbe 988e 2d3e
00000030: 46a7 8abe ecf8 3f3e e300 6c3e a4ad 1abe
00000040: aec5 863e 588a 85be 87ff 25be c34c 1b3d
00000050: 383e 2fbe 2e7e 0d3e a9b1 07be 7cf5 13be
00000060: aa4a 433e 92cb 313e 5927 efbd 9384 6ebd
00000070: eb89 0abe 4039 3cbe 7c64 31be 1c9b 0a3e
-0.28879604 0.17609784 -0.21005438 -0.27271414 -0.16379611 -0.18693689 0.16794805 -0.20233917
-0.22435112 0.21175224 -0.16898818 0.16948926 -0.27080745 0.187473 0.23047213 -0.15105301
0.26322693 -0.2608211 -0.16210757 0.037915003 -0.17113578 0.13817665 -0.13251366 -0.14449114
0.19071451 0.17362812 -0.11677427 -0.0582319 -0.13529174 -0.18381214 -0.17323488 0.13535732
